Projects/python/MarCo/obstacle_detector.pth (torch, 188064 bytes, 4 tensors)

fc.0.weight f4 [128, 360]
00000000: 4f05 1fbd 92c5 163d 01c1 623c 17be 363d
00000010: 3b1f 0ebd 486e 683d b583 ae3a 70e7 d73c
00000020: ec3e 28bc 47d5 1cbd 5436 5e3b 6cde 5f3d
00000030: 58c0 193d 92a4 12bd 01d2 b9bc 3f84 3abd
00000040: 998c d03c e470 033c 2e2b e9bc 7628 493d
00000050: fcca 2dbd e775 373c 1c50 33bd 217d 6f3c
00000060: ed0b 233c af02 0dbd 4dbb 91bc bd5d 2cbd
00000070: 59cd af3c 5f09 3c3d 8cff 14bd 47d0 553b
00000080: 0d6b a63b 0df3 b53b a316 7ebc 7117 dabc
00000090: a45e 493d 4eac 883c 0bd3 3d3d b0f0 e0bc
000000a0: a2fd 39bd 41c9 b1bc 6a3d 093c 7a78 a2bc
000000b0: 97e0 01bd fbeb a3bc 9d6b 8cbc a1a0 8dbb
000000c0: 67c6 113d 1e13 543c 1845 d93a fcf6 3b3d
000000d0: d702 143d 0c06 423d b1de b7bc 6fa7 eebb
000000e0: 70ed 32bd 8151 843a 054a 41bc 58d7 5f3c
000000f0: 8b1b 99bc 088f 033d be71 0bbb 24cc 94bc
00000100: 22dd 23bc 918c 30bd 29e6 6b3d 8eac a43c
00000110: 6bbc 473d e8db 663d 553b 28bd 53fe 08bb
00000120: cd6a edbc e3e9 12bd bab3 633d 3be8 f23c
00000130: 68aa 163c edb2 2bbc 1898 38bc 14c0 be3c
00000140: 3b6b 9c3b be62 a33b 28c7 573d de19 953c
00000150: 3a39 14bd 68fd 0c3d 2688 d9bb 3418 f6bc
00000160: 1209 04bd c552 3abd 91ef 853c 86aa 02b9
00000170: 04a6 443c 5cd7 0e3d a986 143d 3850 d2bc
00000180: ac69 f2bc 6e54 b33c 3267 9e3c 1249 39bd
00000190: a61d 083d c34d a2bb 5c8e 08bd 678c dbbc
000001a0: f5be 823c ea34 05bc 0a37 60bc e19e f13c
000001b0: d4e2 6b3d e31c d03c 3393 193d d8af d43c
000001c0: 6a7f 19bd f26e e73a 6361 543c c283 423d
000001d0: 5859 35bd 9ac0 253d 2291 633d 4a38 6e3d
000001e0: e268 a9bb c07e d73b 7b70 00ba 4c70 533d
000001f0: a106 1dbd 1712 35bd 5206 54bc 3959 003d
00000200: 0326 a7bc 7f5d 863c a9ef 213d e684 5bbc
00000210: acdb 103b 0958 a439 6e6c 613c acd0 853c
00000220: c723 673d b1a7 203d 6bac d2bb ac36 813c
00000230: 8ec7 4f3d d194 4f3d e58e 313d 13b4 12bd
00000240: 1c46 fbbb 9a62 b7bb 2bab 2dbd ed4b 733b
00000250: a806 fd3c 4ce4 343d ee48 b43c 1bba 473d
00000260: 2e20 8f3c 2294 20bd 3b8b 4ebc fcf6 a53b
00000270: 0b28 2b3c 343f 33bd db5a 0abd 9276 343d
00000280: 1f81 bf3c 7506 513d d652 ed3c ad02 43bc
00000290: c861 28bd 6d0a d2bc 66db 14bd f591 04bd
000002a0: de97 983b fd01 1fbd 301b 4f3d 2088 cabc
000002b0: a0e8 b93b ef16 393c 2f51 00bd 18b6 d8bc
000002c0: 5c49 92bc e392 9a3b 407f 1a3d 780b 163d
000002d0: 525c 483d fa85 333d 6e41 4a3d d1f7 32bd
000002e0: f022 033d 5b1b 333c 737c 23bd d186 6c3d
000002f0: 59dd 3abd a702 bcbb 873f 06bc 863e e33c
00000300: 960a 003d 230e 2cbb cef2 1a3c 9824 17bc
00000310: d418 cd3b 380d 933b 23b9 6abb 845b fcbb
00000320: b059 09bd 3a3f cbbc 3f91 34bd 7493 30bc
00000330: 0511 a53a 5fd2 0b3d 58de 84bb 133e b0bc
00000340: 2b23 fd3c 3990 1fbd 0207 1abc f564 cc3c
00000350: dca7 c7bc 1aa5 f73a 532f a83c 49f0 7dbb
00000360: 7c96 2e3c fb95 0c3d ea19 f33c 8a06 17bd
00000370: b2ba f13c 12cb 673d ec64 b03c f20b 9d3c
00000380: ab35 81bc 0c04 483d 4017 40bd 833e 14bc
00000390: 015d 1d3d 7ba7 34bd 59db b0bc 5675 9ebc
000003a0: 4719 35bd 9ccb 34ba b7c1 213c 9404 34bd
000003b0: 280a c23c a7cb c9bb c6f9 6fbc 05fb 153d
000003c0: 234c b93c 3b5f 3abd f549 0dbb b466 1b3d
000003d0: 35ed 123d 3697 483d 4091 933b a757 203d
000003e0: 067a b0bc 82ca 2cbc 56cf cb3c 23d1 93bc
000003f0: 8d32 6e3d c645 4abc 4ab9 8b3b 2529 34bd
-0.038823422 0.03680951 0.013839961 0.044614878 -0.034697752 0.056745797 0.0013314398 0.026355475
-0.010268908 -0.038289335 0.0033906894 0.054655477 0.03753695 -0.035801478 -0.022683145 -0.045536276
0.025457667 0.008022521 -0.028462972 0.049110852 -0.04242991 0.011197544 -0.04377757 0.014617235
0.009951574 -0.034426387 -0.017789507 -0.042081583 0.021460222 0.045907374 -0.03637652 0.0032625364
0.0050786794 0.0055526556 -0.015508327 -0.026622506 0.049162522 0.016683724 0.046343844 -0.027458519
-0.0454079 -0.02170241 0.008376459 -0.019832838 -0.031708326 -0.020009985 -0.017141158 -0.004322127
0.0355896 0.012944011 0.0016576378 0.04588984 0.03613552 0.047369048 -0.022445055 -0.0072831432
-0.04368347 0.0010095091 -0.011797433 0.013662182 -0.018689891 0.032118827 -0.0021277512 -0.018163748
-0.010001453 -0.043102805 0.057592545 0.020101812 0.048763674 0.056362063 -0.04107221 -0.0020903542
-0.02898159 -0.035867583 0.055591322 0.029651752 0.009195901 -0.010479671 -0.011266731 0.02328495
0.004773525 0.004986136 0.052680165 0.018200811 -0.036187388 0.034421355 -0.0066385446 -0.030040838
-0.032235213 -0.04548909 0.016349586 -0.00012461291 0.012002472 0.03487335 0.036261234 -0.025673017
-0.029591404 0.021890845 0.019336317 -0.0452357 0.0332314 -0.0049531176 -0.03333889 -0.026800347
0.015960196 -0.0081302915 -0.013684997 0.029494705 0.057589367 0.0254044 0.037493896 0.025962755
-0.037475027 0.0017656966 0.012962672 0.047488935 -0.044274658 0.040466882 0.05555833 0.05815915
-0.0051699737 0.006576389 -0.00048995734 0.051620767 -0.0383364 -0.044206705 -0.01294096 0.03133509
-0.020403868 0.016402004 0.0395352 -0.013398385 0.002210359 0.0003134611 0.013758762 0.016334854
0.056430604 0.039222423 -0.006429245 0.01577314 0.05072742 0.05067903 0.043349165 -0.035816263
-0.00766827 -0.005596471 -0.042399567 0.0037124113 0.030886963 0.044163033 0.022007432 0.04876147
0.0174714 -0.03920377 -0.012606437 0.005064843 0.010446559 -0.043761447 -0.033778053 0.04405839
0.023377 0.05103155 0.028970163 -0.011902493 -0.041108876 -0.025639737 -0.036342047 -0.032365758
0.004656776 -0.038820256 0.050563037 -0.024723113 0.005673483 0.011296972 -0.031327423 -0.026454017
-0.017857246 0.0047172173 0.03771901 0.03663203 0.04891617 0.043828942 0.049378805 -0.043693367
0.03201574 0.010931815 -0.039913606 0.05774576 -0.04562125 -0.005737621 -0.008193857 0.027739774
0.031260096 -0.0026253543 0.009457303 -0.009225033 0.0062590633 0.00448766 -0.0035815916 -0.007701339
-0.0335328 -0.024810422 -0.04408383 -0.010777343 0.0012593573 0.034136172 -0.0040548258 -0.021513974
0.030900558 -0.0389559 -0.009401085 0.024950484 -0.024372034 0.0018893809 0.020530378 -0.0038747957
0.010655995 0.03432272 0.029675443 -0.03687147 0.029507969 0.056590147 0.021532498 0.019170735
-0.015772661 0.048831984 -0.046897173 -0.009048107 0.038418774 -0.044105034 -0.021588968 -0.01934306
-0.04421356 -0.0006896795 0.009872845 -0.04394968 0.023686484 -0.0061583105 -0.014646953 0.036616344
0.022619313 -0.045500975 -0.0021558974 0.037939742 0.03587075 0.04897233 0.004503399 0.03914609
-0.02154256 -0.0105463285 0.024879139 -0.01804406 0.058153678 -0.012345737 0.0042640315 -0.04398455

fc.0.bias f4 [128]
00000000: 0912 3d3d 3830 34bc e977 fe3c 10c6 b6bb
00000010: 03eb e13c 522a a33c ad9f 233d b448 3d3c
00000020: f16e 63bd b47e a6bb 6728 d0bc ab20 5fbc
00000030: 4509 053d a8b0 28bd 97d7 10bd f145 11bc
00000040: 2a34 95bb e97a 293d c867 103d bcf3 bfbc
00000050: e100 e4bc 3ffa 253c 296a 17bd 0a14 b53c
00000060: 5381 bb3c 097d 243d 723e 053d 372c 94bb
00000070: dda7 2a3d 7b44 963c 3544 0bbd 88b6 e7bc
00000080: 9363 35bd cc80 18bc d1ac 55bc c3f5 3f3d
00000090: 98b1 b3bc 4d15 6c3d 3f99 d8bb 6e18 173d
000000a0: c1a4 1fbd b8c3 2fbd 9a69 2dbc 3d98 b33b
000000b0: a7ce e4bc 15bf 1cbd 6362 213d 63ff a63c
000000c0: da00 c2bc 43c1 a83b 9690 a5b9 ea45 92bc
000000d0: ad1f 5f3c aa31 bf3c 6ffe 2fbc d364 3c3d
000000e0: 5d73 613d c14b 85ba 6dbf a8bc 7223 f93c
000000f0: 93e5 45bd 478e 693d 7207 e43c 915b 3abd
00000100: 4864 cfbc 50f5 203d 6298 623c be94 133c
00000110: d3b5 3fbd 5b47 12bd 8354 e7bc 31cb 503d
00000120: 4cae fbbc e8f6 02bc 7dfe 0a3d f842 b73b
00000130: 9f77 393c 14f5 283c 83ae 90bb 5099 72bc
00000140: 82ec 383d 2a6a 9539 c7c2 393c 2180 643d
00000150: c7b4 ffbb b01a 3e3d a10e 50bd 6b9c e0bc
00000160: c446 f7bb f373 60bd 2321 dbbb 81fc ee3c
00000170: 8185 be3c d5c3 12bd ae83 e63c 8a7d 47bc
00000180: 61c8 60bc f8c3 233d b2ea a63c 5c02 4b3c
00000190: 7021 ebbc 2b3d 2fbd a8d4 383d a132 f9bc
000001a0: 1376 d5bc 7904 163d ad71 37bd 5a04 e43c
000001b0: bc3b a63c a69c f1bc c7aa dd3c ec25 2f3d
000001c0: 0c00 8c3c a441 293d 7147 f43c 3a8b a6bc
000001d0: a393 eabc 9ffd a1bc aaf5 ffbb 1013 7ebc
000001e0: b624 d7bc 20d9 da3c eead 433d cc46 e6bb
000001f0: 8165 3c3d 7844 2ebd f178 313d 7bfb d43c
0.046159778 -0.010997824 0.031063037 -0.00557781 0.027577883 0.01991764 0.0399472 0.011552978
-0.055525724 -0.005081022 -0.02540989 -0.0136186285 0.032479543 -0.041184098 -0.035361852 -0.008866773
-0.0045533376 0.041376982 0.035255224 -0.023431651 -0.02783245 0.010130464 -0.036966477 0.022104282
0.022888815 0.040158305 0.032530256 -0.0045218724 0.041663993 0.0183432 -0.034000594 -0.02828528
-0.044284414 -0.009308051 -0.013041691 0.046865236 -0.02193527 0.0576375 -0.0066100652 0.036888532
-0.03897548 -0.04291126 -0.010584259 0.0054807947 -0.02793057 -0.038268168 0.03940047 0.02038545
-0.023682047 0.0051499917 -0.00031578977 -0.017855603 0.013618392 0.023339111 -0.010741814 0.04599459
0.05504166 -0.0010169671 -0.020599091 0.03041241 -0.048314642 0.057020452 0.027835581 -0.04549748
-0.025316373 0.03929645 0.013830276 0.009007631 -0.04680426 -0.03571258 -0.02823854 0.05097503
-0.03072276 -0.007993437 0.033934105 0.0055927 0.011320024 0.010312337 -0.0044153347 -0.01480706
0.045147426 0.00028498593 0.011337942 0.055786256 -0.0078035328 0.04641217 -0.0507952 -0.027418336
-0.0075462777 -0.054798078 -0.0066873 0.029173138 0.023257019 -0.03583129 0.028138962 -0.012175927
-0.013719649 0.039981812 0.020375583 0.012390699 -0.028702468 -0.042782944 0.04512468 -0.03041965
-0.026057279 0.03662536 -0.044786144 0.027834106 0.020292155 -0.029493641 0.027058972 0.042760774
0.017089866 0.041322365 0.029819222 -0.02033006 -0.028634852 -0.019774256 -0.007811268 -0.015507475
-0.026262622 0.026714861 0.047773294 -0.0070274826 0.04599524 -0.042545766 0.04332823 0.025998821

fc.2.weight f4 [2, 128]
00000000: 0169 a4bd 69f8 bcbd 07f3 8a3d 5a7c 763d
00000010: ab2e f4bc 3115 adbc 583a 513d 252b 163d
00000020: 272d 2c3d 3d0c 743d 15a9 a0bd fa2b 163d
00000030: c620 6bbd 061d 10bd b539 54bd 9efe 80bb
00000040: ba28 383d 95c2 08bd 84a6 8d3d 131d 60bd
00000050: 1960 9ebd 8688 743d 6ee8 a53d b39e 18bd
00000060: 8df8 253d aabb 943c 002e 4a3d 1868 94bc
00000070: ad38 e2bc 5783 76bc a383 59bd 593d 9c3d
00000080: 4d5b 1b3c 8397 b8bc 1be7 7a3d c33e 1d3d
00000090: ed75 593d 28a6 bdbd 16ef 83bd c926 e13c
000000a0: afc7 5dbd fdbd 93bd e95d 303a cd7f a4bd
000000b0: 899b 1a3d dc24 85bd 0a23 843d 7917 083d
000000c0: 7a22 993d 5882 753d 355b 353c 7199 783d
000000d0: 2167 92bd c1bd 7c3d 0b3e 1bbd ea7b 62bd
000000e0: 448d 5dbd b158 7bbc 965a 73bd 70ba 423c
000000f0: 1ab5 a33d 7b20 1b3c 7e32 88bd b305 f3bc
00000100: 6121 9a3d d59a babb bcdf 44bd 8465 aebd
00000110: 93f4 9a3d 85e7 a3bb c300 9bbc 75e0 4fbd
00000120: a6ac 0a3d 688b acbd 66ad 69bd 6201 98bd
00000130: e73d 28bd 2a4c 933d 1dc0 abbd 7b9f 7c3d
00000140: 649a 41bd 6362 763d b738 983d f9c6 50bd
00000150: b8aa d83c 5090 3ebc 26dd 803d c8e1 1fbb
00000160: 7988 7ebc dbf7 43bc 14ae e6bc ed8e 693d
00000170: 6d31 babd 2d36 f53c 5b5c 2cbd e854 aebd
00000180: 37ed 983d 70f9 633d 7f40 123d d326 0dbd
00000190: a47d 81bd 5118 6cbd 11ba ccbb b04d 9dbd
000001a0: b553 69bd 742e a8bd 1ddf eb3c a77a 7e3c
000001b0: b71f c1bb d0c1 7a3d 3751 643d 0627 49bd
000001c0: 157e a23d bdc6 f7bc 04f5 7ebd 030e 503d
000001d0: bf9d e53c 7ae9 aebd f61a 203d 6268 5b3d
000001e0: bb67 1cbd 3b9b b5bd 5512 403d 0a93 693c
000001f0: 1fd1 6cbc ccfb 48bd a267 d63c 3106 22b9
00000200: 06a0 7cbd bee7 a13d 6ba3 3c3d 48fb 21bd
00000210: bf0d 6d3d 121f 60bd 75a2 7ebd 27b9 993d
00000220: 1308 fb3c 239b aa3d 7023 713d 4339 e3bc
00000230: 789e ed3c 4014 943d b86b 8ebd dbc1 8a39
00000240: a98b 833d 96e4 0fbd 16ef 6abd 9307 ed3a
00000250: dfa6 1f3d 96ee a73c e903 443d 7db0 573d
00000260: a4c9 613b 4d60 d23c 2c43 873d ef7c 60bd
00000270: edef cdbc 8890 8fbd 55f1 b2bc aa33 89bd
00000280: 6d28 443d 46fa f8bc a6ce ed3c 0988 533d
00000290: 9ee8 a43d dc94 2fbd 4e82 e93c 299a be3c
000002a0: c010 1fbd 254f 853d 332c 9bbd 785f 763d
000002b0: fff9 723d df3d d6ba 90ed 343d 18d2 b93d
000002c0: 3028 6d3d 65a0 00bc 0b57 053c 2d2d 19bc
000002d0: 920b 773d 8ee1 ab3c 5ddb ae3d ab99 893d
000002e0: 9bac cc3b 1638 88bd 637a 0e3d 52a2 a6bd
000002f0: 0d45 763c b8af 253d 9626 183c 3ec2 7dbc
00000300: f0c8 823d 6279 743d 1d45 5cbc 881d 7cbd
00000310: d4c8 7d3d 9371 48bb 7702 483d b65d 1a3d
00000320: fc1a b83d f7e6 c7bc 973c 2abd b837 eabc
00000330: 44dc 1cbd 72bb ae3d ad1c 253d ba20 743c
00000340: 52c7 b6bc cfd6 ab3c d477 383d a038 ac3d
00000350: 4604 48bd 139e 5f3d acb1 893d 3c51 94bd
00000360: 4e10 2dbd a137 47bd 671c f6bc ebf3 2b3d
00000370: a2dc b13c 737c 213c 7375 88bc 1dc5 9e3d
00000380: daa1 8bbd 1a20 233d 1a56 9f3d 7579 a4bd
00000390: b179 39bd e942 b33d 2564 833d 37ce 2c3d
000003a0: b078 8f3c e532 113c f864 de3c 852a 413d
000003b0: f111 103d 4bc6 afbb 1dfc 8dbd 96b2 e13c
000003c0: 828d 723d c1b8 94bd 13b6 23bd 165d 7c3c
000003d0: 7f23 5d3d 7fa2 8dbc 7848 003d 54fe 85bd
000003e0: ac39 ac3d 24c0 8c3d 27d7 933d 046e 513d
000003f0: 5897 9fbd 604b a5bc 5302 f63c ca00 843d
-0.080278404 -0.09227068 0.06784635 0.060177185 -0.02980741 -0.021128269 0.05108103 0.03666224
0.042035248 0.059581984 -0.0784475 0.036663033 -0.057404302 -0.03518393 -0.051812846 -0.0039366027
0.044960715 -0.033388693 0.06916526 -0.054715227 -0.07733173 0.05970051 0.08100973 -0.037260722
0.04052024 0.018155891 0.049360275 -0.018116042 -0.027614916 -0.015045962 -0.053104054 0.07628889
0.009482217 -0.022533184 0.061255556 0.038389932 0.05309098 -0.092602074 -0.064420864 0.027484315
-0.05414551 -0.07213972 0.0006727861 -0.080321886 0.037745986 -0.06501171 0.06451996 0.03322551
0.07477279 0.05993876 0.011069109 0.060693208 -0.071485765 0.0617044 -0.037900966 -0.055293955
-0.0540898 -0.01534097 -0.05941256 0.0118852705 0.07993527 0.009468193 -0.066502556 -0.029665804
0.07525898 -0.005694727 -0.048064932 -0.08515456 0.0756618 -0.0050019645 -0.018921262 -0.05075117
0.033856057 -0.08425027 -0.05705013 -0.07422139 -0.04107466 0.071922615 -0.08386252 0.06167553
-0.04726638 0.060152423 0.074326925 -0.050971005 0.026448593 -0.0116310865 0.06292181 -0.002439605
-0.015535467 -0.011960949 -0.028159179 0.05702107 -0.090914585 0.02993306 -0.042080265 -0.08512288
0.0746712 0.055657804 0.03570604 -0.034460854 -0.06322792 -0.057640377 -0.006247767 -0.07680833
-0.056964595 -0.08211985 0.028792912 0.015532172 -0.0058936733 0.06121999 0.055741515 -0.04910948
0.079342045 -0.030246133 -0.062245384 0.050794613 0.02802932 -0.08540626 0.039088212 0.053566344
-0.038184863 -0.088674985 0.046892483 0.014256248 -0.014454155 -0.049068257 0.026172463 -0.0001545183
-0.061676048 0.079055294 0.046054285 -0.03954628 0.057874437 -0.05471713 -0.06216665 0.07506018
0.030643499 0.08330371 0.058871686 -0.027737265 0.029006228 0.07230425 -0.069541395 0.00026465845
0.064231224 -0.035130106 -0.057356916 0.0018083922 0.0389775 0.020499509 0.04785529 0.052658547
0.0034452463 0.025680685 0.06604609 -0.054806646 -0.02513882 -0.07009989 -0.021843592 -0.06699307
0.047890116 -0.030392777 0.029029202 0.051643405 0.08052181 -0.042866573 0.028504517 0.023266869
-0.038834333 0.06509236 -0.0757679 0.06014964 0.059320446 -0.0016345343 0.04417187 0.09073275
0.057899654 -0.007850741 0.008138428 -0.00934915 0.06031377 0.020981576 0.08537934 0.06718763
0.006246162 -0.066513225 0.034784686 -0.08136429 0.015031111 0.04045078 0.009286543 -0.0154882055
0.06385982 0.059686072 -0.013444212 -0.0615516 0.061959103 -0.0030585274 0.048830476 0.037687026
0.08989522 -0.024402125 -0.04156169 -0.028591022 -0.038296 0.08531846 0.04031055 0.014900381
-0.02231184 0.020976452 0.045036152 0.08409238 -0.0488322 0.05459411 0.06723341 -0.07242057
-0.042251877 -0.048637036 -0.03004284 0.041980665 0.021711651 0.009856331 -0.016657567 0.0775244
-0.0681798 0.039825536 0.077800944 -0.080309786 -0.04528207 0.087529965 0.064155854 0.04218885
0.017513603 0.008862232 0.027147755 0.04715969 0.03517336 -0.0053642145 -0.069328524 0.027550977
0.059216984 -0.072618015 -0.03996856 0.015403053 0.05398893 -0.017289398 0.03131911 -0.0654265
0.084094375 0.068725854 0.072187714 0.05113031 -0.077925384 -0.020177543 0.030030405 0.06445463

fc.2.bias f4 [2]
00000000: b849 9dbb 9ca5 1f3d
-0.0048000477 0.038976297
